result/save/CKPT+2023-01-14+15-33-12+00/lin.ckpt (torch, 21215 bytes, 1 tensors)

w.weight f4 [40, 128]
00000000: a8c3 123e c88b 253e 1e6a 003e 13aa 103e
00000010: e693 ac3d 3e64 05bc 8272 0bbd 0122 b6bd
00000020: 6de5 86bb 4ff3 233e c26e 0f3e f697 8a3d
00000030: c1c8 b23c 57fa cdbd 1dfe c93d 167b bbbd
00000040: 6d49 e43c 389c 0c3e f732 853d b6a8 7cbd
00000050: e1e4 153e b046 f53d da20 abbd 4449 a2bd
00000060: b83c 173e 67cc 75bc a30c 1b3e 02f8 01bd
00000070: 6a98 ee3c e4bf 11bd d989 a5bd b3b7 413b
00000080: 01c0 16bd 4cf7 8c3d ad30 c9bc 0e74 12bd
00000090: 8468 d43d dee9 d93d 9614 a73d 9f00 17bb
000000a0: f9ff 0b3e f4ef 92bb ddee d1bd 10f7 b5bc
000000b0: 1707 75bd f1b5 a03d 57c5 1e3e 9d54 0e3e
000000c0: 9a0d 3e3d 6868 173e 391d cabd cfd6 223e
000000d0: 9003 32bd 1816 ccbd 9392 013e d8e7 123e
000000e0: 1dcc a53d 92e9 a13d 4ef8 f63d f866 963d
000000f0: 85b7 443d ffac e73d 8c00 233e 9b0c a33d
00000100: 6aa7 173e 5877 a7bd eb4c 073e 6d98 a83d
00000110: 1d78 873d a889 a3bd 33e3 973d 275b ecbd
00000120: f28d fabb 40e1 3a3e 42eb 233e af00 d63d
00000130: 1def d43c 61e9 b1bc 9212 96bd f2ac d93b
00000140: 9f44 263e 5269 043e a1c1 353d 9f6b 0c3d
00000150: 5f0e acbd 791a e63d 1736 35bd 1b7e 9c3d
00000160: 1b32 17bd bdd4 1f3e 0c99 083e d48e a33d
00000170: e401 343e 17a1 2a3e 54ac 2e3e fa02 2e3d
00000180: ca7d 183e 8764 4bbd b064 b7bd 70a3 e43d
00000190: 4094 2e3e 20ce fbbc d8a7 793d 3b20 f13d
000001a0: d213 883c 6696 a23c b347 d23d 6366 ec3d
000001b0: e3da 973d e664 aabd fb29 d7bc 3c09 3cbd
000001c0: 0a29 2c3d 8d55 9fbd b880 073e 9582 d63c
000001d0: 147c a3bd 5d78 1c3e 557a 8e3d c9d3 a9bd
000001e0: 6f8e 97bd f2ed d9bc cb2b 89bc 20b1 9cbc
000001f0: 4e7a b2bc 1fd3 493d bd7c 253e 0099 083e
00000200: 3d87 a1bd e769 cebd 77a4 c5bc e637 99bd
00000210: 666f a63d cc49 1c3d 0673 893d 73db b6bd
00000220: 7d33 c03d 786d f0bd 7d3e 22be db8e 25bd
00000230: 3925 0fbe 513b e63d 2e78 c7bd a491 bd3d
00000240: 1300 dc3d 71c6 a63d 69f2 26be 40e4 863c
00000250: 7ce4 86bc b46b 313a 29ee f6bd 2fc6 4abd
00000260: 31d4 9abd 7217 e13d 6aca 243c 0c1e a33c
00000270: e501 ed3d de1c e93d 9219 3039 02cb 4abd
00000280: 06f9 13bd d4c8 0abe cd84 37bd ed15 d5bd
00000290: 6b61 78bd 4fee ccbd 3639 3cbe a6d0 0d3e
000002a0: 48e6 97bd ad7c 81bd fd1a 883d 97fe bc3d
000002b0: 00a5 bf3d 922f 17be dbed edbd 98a2 6fbe
000002c0: a186 4cbe 294b 523c 6259 9c3d 64cc edbd
000002d0: 4886 3bbd 054e ea3d e3fe 88bd f38b 0abe
000002e0: 544f 97bd b90d 22be 052b 1fbe f22c e83d
000002f0: ec89 c4bd 7ea4 1b3d 7932 bfbc 4dd6 793d
00000300: 249a 06be a7ea 473d 4ad6 71bb 884c 4cbe
00000310: efb1 e8bd 4b9b b8bd 329c f53d c6fd bf3c
00000320: 35b6 cfbd 103e 3fbe 4a12 c6bd 055f b43c
00000330: d8ee b1bd 0546 d73d 8c40 043e 28c0 cd3d
00000340: 2cfa dbbd 2933 8c3d 580d fbbd 7268 08be
00000350: 90b6 463d 8d6a 21be 953c 4dbd 8540 52be
00000360: 7168 3cbd 8858 0cbd 29d6 1dbe d6c9 48be
00000370: 174b 5abd 1419 cbbd 5a24 dcbd 7431 94bd
00000380: 616d 23be 12b6 e23b 7755 8c3a ad09 fb3d
00000390: c7e7 afbd f4ad d1bd 4f88 023e 5a0f bcbd
000003a0: 55f6 07bd b77f a53c c279 3dbe 3360 97bd
000003b0: 98e2 57bd cee9 153d c4a4 8dbc e91d 943c
000003c0: deb7 eb3b 464a f53d 6a61 6e3b 2b07 f43d
000003d0: 4469 ab3d a41f 023e 5ea2 d83d 1ba1 c43d
000003e0: cced 3d3d e537 473d 5f96 ba3d 10f5 1cbd
000003f0: 7964 03bc dfb7 cdbd edaf 54bd e7f3 54be
0.1433245 0.16166604 0.1254048 0.14127378 0.08426647 -0.008141575 -0.03404475 -0.088932045
-0.004116705 0.16010784 0.14007095 0.067672655 0.021824243 -0.10057514 0.098629214 -0.09154336
0.027867043 0.13731468 0.065038614 -0.061684333 0.14638092 0.11976373 -0.08355875 -0.079241306
0.14769256 -0.015002347 0.1514154 -0.03173066 0.029125411 -0.03558339 -0.08082933 0.0029558956
-0.036804203 0.06883106 -0.024559343 -0.03575521 0.10371497 0.1064031 0.08158223 -0.0023041142
0.13671865 -0.004484171 -0.10250638 -0.022212535 -0.059821215 0.078472026 0.15504967 0.13899465
0.04639969 0.14785922 -0.09868855 0.15902255 -0.04346043 -0.099651515 0.1265357 0.14346254
0.08095572 0.07905878 0.12059079 0.073438585 0.04802658 0.11312293 0.15918177 0.07961389
0.14809957 -0.0817706 0.13212936 0.08232198 0.06614707 -0.0798524 0.07416382 -0.115408234
-0.0076463157 0.18249989 0.16007712 0.10449349 0.025992924 -0.021717729 -0.07327761 0.006642931
0.16237114 0.12930802 0.044374112 0.034282323 -0.084011786 0.11235518 -0.044241037 0.0764124
-0.03691302 0.15608497 0.13339633 0.07986227 0.17578846 0.16663013 0.17057925 0.042483307
0.14891735 -0.049656417 -0.089547515 0.11163986 0.1704874 -0.030737936 0.060951084 0.117737256
0.016611014 0.019847106 0.10267582 0.11542966 0.07414796 -0.08320026 -0.026265135 -0.045907244
0.042031325 -0.077799894 0.13232696 0.026185313 -0.079826504 0.1528029 0.06956927 -0.08292348
-0.07400214 -0.026602719 -0.016744515 -0.019127429 -0.021786835 0.049273606 0.16160865 0.13339615
-0.07887123 -0.10078793 -0.024126275 -0.07481365 0.08126716 0.038156316 0.06711392 -0.08928575
0.093848206 -0.117396295 -0.1584415 -0.04041944 -0.13979043 0.112417825 -0.09739719 0.09256294
0.10742202 0.081433184 -0.1630341 0.01646626 -0.016466372 0.0006768063 -0.12057144 -0.04950541
-0.075600035 0.109908 0.010058025 0.019911788 0.11572627 0.11382459 0.00016794194 -0.04951001
-0.03612616 -0.13553172 -0.044804383 -0.10404573 -0.06063978 -0.10006391 -0.18381199 0.13849124
-0.074169695 -0.06322608 0.066457726 0.09228247 0.09357643 -0.1476424 -0.11617633 -0.23401868
-0.19973232 0.012835302 0.07634236 -0.1161125 -0.045782357 0.11440662 -0.06689241 -0.13529949
-0.073881775 -0.15825547 -0.15543754 0.11336698 -0.09596619 0.03799867 -0.023339497 0.06099539
-0.13144737 0.048807766 -0.0036901408 -0.1995107 -0.11362063 -0.09013995 0.119926825 0.023436438
-0.10142175 -0.18676019 -0.09671457 0.022017965 -0.08688134 0.10511402 0.12915248 0.100464165
-0.10741076 0.068456955 -0.122584045 -0.13321093 0.04851395 -0.15763302 -0.050106604 -0.20532425
-0.04599804 -0.034264117 -0.15413727 -0.19608244 -0.053294268 -0.09916893 -0.10749121 -0.07235995
-0.15959693 0.006918677 0.0010706623 0.12257705 -0.0858913 -0.10238257 0.1274731 -0.091826156
-0.033193905 0.0202025 -0.18503478 -0.073913954 -0.05270633 0.036599927 -0.01729048 0.018080669
0.0071935495 0.11977057 0.0036373981 0.1191543 0.08369687 0.12707382 0.10577844 0.09601041
0.04636936 0.04863729 0.09110712 -0.038319647 -0.00801956 -0.10044836 -0.05192559 -0.20796166
