result/save/CKPT+2023-01-15+22-18-52+00/lin.ckpt (torch, 21215 bytes, 1 tensors)

w.weight f4 [40, 128]
000000 76 30 1d 3e 17 17 2f 3e a0 33 2b 3e 6e 97 81 3e
       0.15350518 0.17098652 0.16718912 0.25310844
000010 36 a9 39 3e 80 d8 e3 3d ab 54 bc bc 1e 52 8f 3d
       0.18130955 0.111252785 -0.022989592 0.069980845
000020 97 7e 83 3e d1 1a 00 3e 99 74 fb 3d 89 06 72 3d
       0.25682518 0.1251023 0.122780986 0.059088264
000030 1d af db 3d c3 a8 c0 bf 89 81 8f 3e 02 ff 1f be
       0.107267596 -1.5051502 0.28028515 -0.15624622
000040 0e 04 b4 3d 7d 7a 69 3e e3 c6 41 3e 33 76 33 3d
       0.08789836 0.22800632 0.18923526 0.043813895
000050 e4 e6 6e 3e ac 2c a3 3d 0f d7 04 bf 1e f6 89 be
       0.23330265 0.07967505 -0.51890653 -0.26945585
000060 95 fb 2e 3d 5a 8d b1 3d a1 6b 77 3e 48 e8 01 3e
       0.042720396 0.08669539 0.24162151 0.12686265
000070 aa f8 a2 bc ba c9 d3 be 78 0c 11 be 0f 00 b8 3d
       -0.019893963 -0.41364843 -0.14164913 0.08984386
000080 ae 39 3f bf 58 78 df 3d 19 b5 aa 3d f7 3c 03 be
       -0.7469739 0.109116256 0.08335323 -0.12816225
000090 2b 55 a8 3d 54 f1 a3 3e 48 07 7a 3d 16 9f 57 3c
       0.082193695 0.32020056 0.0610421 0.013160488
0000a0 ab b4 7b 3d 90 85 b9 3d 7b f7 9e bd 4e 87 f4 3d
       0.061451595 0.09058678 -0.07762047 0.1193987
0000b0 51 0c fa 3d 7b bb 3f 3d e7 9e 70 3e 5d ff f5 3e
       0.122093804 0.046809655 0.23498116 0.4804639
0000c0 01 18 11 3d ae 14 ec 3e 33 bd 83 3c 22 a3 39 3d
       0.035423283 0.46109527 0.016081428 0.04532159
0000d0 25 55 38 3e 5e 8a fe 3c 53 8c ad 3d 1e 8c 12 3e
       0.1800123 0.031071838 0.0847403 0.14311263
0000e0 c6 c0 3a 3e f2 55 c7 3d 60 5a 72 3e 87 63 50 3e
       0.182376 0.0973319 0.23667288 0.20350467
0000f0 0f 52 7b bd 95 4d 88 3e f5 5d fa 3d 74 8c 8e 3d
       -0.061357554 0.2662169 0.12224952 0.06960383
000100 d8 52 21 3e f2 35 ac 3d e3 34 02 3d c9 87 87 3d
       0.15754259 0.08408727 0.031788718 0.06617696
000110 20 62 64 3e ee dd 7f be f3 5a bc 3d 9d a1 f9 bd
       0.22303057 -0.24987003 0.09197035 -0.121890284
000120 f3 b7 ee bc 08 f5 9f 3e b0 2b c9 3e ee 38 a8 3e
       -0.029140448 0.31241632 0.39291143 0.32855934
000130 ae de 61 bc f3 0e ab bc 4d 17 0c bf 89 ee 22 3e
       -0.013786001 -0.020881152 -0.54723054 0.15911306
000140 2b c6 a3 3d bc ea 2f 3d 93 61 a4 3c ea ca b4 3e
       0.07996782 0.04294847 0.020066058 0.3531106
000150 e1 7f 4c 3e ed 4e ae 3e 9d e7 af 3d bc 13 64 3d
       0.19970657 0.3404459 0.085890986 0.055682883
000160 0b de 63 3d b6 23 24 3e 63 2a 26 3e 91 4b c5 3d
       0.05563168 0.16029248 0.16227107 0.09633554
000170 5c 85 ab 3e 51 d2 50 3e 57 e3 73 3e 61 31 4c 3d
       0.33500183 0.2039273 0.23817192 0.04985178
000180 40 39 43 bd f5 59 47 3e 3f 3e 82 bd d0 ef b0 3e
       -0.04766202 0.1946791 -0.06359529 0.34557962
000190 52 06 d0 3e d2 da a2 bd 19 00 01 3e 33 53 e8 b9
       0.40629822 -0.07951893 0.12597694 -0.00044312477
0001a0 94 93 30 3e ee 6a fb 3d 7d 80 bc 3e 02 7b 7b 3d
       0.17243797 0.122762546 0.3681678 0.061396606
0001b0 e3 3d d2 3d cd fe c9 bd 01 71 47 be 97 03 24 3d
       0.1026571 -0.098630525 -0.19476701 0.040042486
0001c0 b6 fd 64 3e 2a 65 7e bd 38 41 b0 3e a5 47 37 3e
       0.22362408 -0.062108196 0.34424758 0.17898424
0001d0 4f 4e 35 bd d2 bf 2b 3e f0 ec c3 3d 5c 45 13 be
       -0.044264134 0.16772392 0.095666766 -0.14381927
0001e0 64 11 fd be 7b ab 72 3d 69 ae c4 bd 40 b7 dc 3d
       -0.4942733 0.059245568 -0.096035786 0.1077714
0001f0 ed 67 16 3e fb c5 d9 3e cf 85 66 3e 73 72 47 3e
       0.14688082 0.4253386 0.22511981 0.19477253
000200 f5 4d d1 3e 9d 29 c8 bd 54 b1 ab 3e 12 02 a2 bf
       0.4087979 -0.09773562 0.33533728 -1.2656882
000210 a0 6d af be ec 60 dd 3e 20 f7 d5 3d 4d 50 cb bf
       -0.34263325 0.43238008 0.10447526 -1.5883881
000220 31 64 0c 3f 60 dd b4 be 44 c7 8f bf 3a 1c f7 be
       0.5484038 -0.35325146 -1.1232686 -0.48263723
000230 30 77 d6 be d3 9e 50 bf 3d 72 f8 be 14 73 07 bf
       -0.41887808 -0.81492347 -0.48524657 -0.5290997
000240 69 44 19 bf a5 81 e7 3e 76 44 c9 be 52 4d 86 bf
       -0.5987001 0.45216098 -0.39310044 -1.0492346
000250 15 c1 f7 be 66 89 cc be 10 5f 3b bf 18 9b 21 be
       -0.48389497 -0.39948577 -0.7319193 -0.1578182
000260 27 88 36 be fe cd e3 bf 67 71 29 3e 97 59 8a bf
       -0.17825375 -1.7797239 0.16547166 -1.0808591
000270 ab 75 29 be 65 4d f8 be 81 93 68 3d 8b 71 89 bf
       -0.16548793 -0.48496547 0.056781296 -1.0737776
000280 fa ca 74 bf c9 f0 55 bd 63 23 70 3e a5 aa 26 3e
       -0.9562222 -0.052231584 0.23450999 0.16276033
000290 8d 1d af 3e 65 7b d9 be 11 54 0e 3c 38 6e 8c bd
       0.34202233 -0.42476955 0.008687035 -0.0685696
0002a0 91 fa 70 bf f5 0e 2e c0 09 67 26 be c4 73 af 3e
       -0.94132334 -2.719663 -0.16250242 0.3426801
0002b0 55 97 ad 3e ff 29 31 bf aa 8f 3c bf e0 e1 a6 be
       0.3390452 -0.69204706 -0.73656714 -0.32594204
0002c0 69 b0 82 bf ef 6d af bd b2 4c 9e 3e af 4c 93 bf
       -1.0210086 -0.0856589 0.3091789 -1.1507777
0002d0 a7 a5 01 bf b2 15 0a 3f 69 3d ba bd 3b e6 ab bf
       -0.5064339 0.53939354 -0.09093744 -1.3429636
0002e0 26 d8 1e bf eb 74 67 bf 19 a5 a0 bf f7 d5 af 3e
       -0.62048566 -0.9041278 -1.2550384 0.3434293
0002f0 ac 3c 62 bf 5b bc c0 bf 3f 53 e0 3e 43 83 d3 3e
       -0.8837383 -1.5057482 0.43813512 0.41311082
000300 e8 3e da be 19 70 c9 3e 91 1a 0f be a0 99 02 be
       -0.4262612 0.39343336 -0.13974978 -0.12753916
000310 d1 ad ab bf f0 e3 ae bf f0 f7 12 bf e6 dc 46 3e
       -1.341242 -1.3663311 -0.5740957 0.19420204
000320 da 27 45 3e 07 6a 89 bf 38 7a f2 be 01 ba c6 bf
       0.19253483 -1.0735482 -0.4735887 -1.5525514
000330 32 25 74 be a8 20 57 3e 61 40 7a 3e 17 38 0c 3f
       -0.23842314 0.21008551 0.24438621 0.54773086
000340 4e 74 5b bf 83 f6 0e bf f7 12 58 bf 5e 3b 81 bd
       -0.8572434 -0.558449 -0.8440394 -0.063101515
000350 db 2b 22 bf f6 3c 0d 3d f7 52 bc bf f5 f3 27 bf
       -0.6334817 0.034481965 -1.4712819 -0.65606624
000360 48 ec 52 bf 14 1b ab be df 31 7e be b1 95 cd be
       -0.82391787 -0.33419096 -0.24823712 -0.40153268
000370 81 11 a8 be 8a 15 8d 3e a1 f6 a5 bf da 3a 41 bf
       -0.32825854 0.27555496 -1.296589 -0.75480425
000380 d1 6d 7a be 94 c5 9b bf d5 93 ea 3e 31 69 20 bf
       -0.24455954 -1.2169671 0.45815912 -0.6266051
000390 e0 df 24 bf cc 98 8c bf 93 e2 c7 bf 7f 6e 88 bf
       -0.64404106 -1.098413 -1.561602 -1.0658721
0003a0 d0 f8 e3 3e 0a ae 6d bf 11 31 36 bf d5 6d 2d be
       0.44525766 -0.9284369 -0.7116862 -0.16936429
0003b0 e8 a1 85 be 9c a8 24 bf 4e 13 3d bf d5 ec dc bd
       -0.26100087 -0.6431978 -0.7385758 -0.107873596
0003c0 94 3b 35 bf 44 8a dc 3e c3 fe f8 be 07 69 5d bf
       -0.70794034 0.43074238 -0.48631868 -0.86488384
0003d0 70 3c 10 be 5c fc c5 bc d8 75 86 3e c9 3b 10 bf
       -0.14085555 -0.024168186 0.26261783 -0.56341225
0003e0 2b 27 d6 be 64 4b 8e bf 0f fc 94 bf b5 ed b4 be
       -0.41826758 -1.1116757 -1.1639422 -0.35337606
0003f0 2e 7d a3 3e 84 e4 7e 3d 1e 73 48 bf 1d 45 8d be
       0.31931442 0.06222965 -0.78300655 -0.27591792
