result/save/CKPT+2023-01-15+22-29-25+00/lin.ckpt (torch, 21215 bytes, 1 tensors)

w.weight f4 [40, 128]
000000 8b de 99 3d cf dc 09 3e 5f 5a 7d 3e 0d 82 78 3e
       0.0751315 0.13463138 0.24741505 0.2426836
000010 a9 98 7b 3e c4 e7 36 3e 46 61 c1 bd fa 0e ec 3d
       0.24569954 0.17861849 -0.094423816 0.11526294
000020 8b fb 6c 3e 69 87 09 3e b7 ef 09 3e b5 a8 8d 3d
       0.23142831 0.13430561 0.1347035 0.06916944
000030 e8 36 de 3d 52 d0 ca bf 06 4c 8c 3e 3e af 25 be
       0.10850316 -1.5844824 0.2740175 -0.16180131
000040 92 c9 06 3e 1f cd 9c 3e 45 a8 52 3e 05 77 62 3c
       0.1316283 0.30625245 0.20572002 0.013822322
000050 8e 89 6e 3e 2c 46 23 bc 41 1c 32 bf 3b 85 99 be
       0.2329466 -0.009965461 -0.6957436 -0.2998446
000060 1d ce 0b 3d fe 57 2d 3e 25 b8 31 3e d4 c9 01 3e
       0.03413211 0.16928098 0.17355402 0.12674648
000070 78 c8 54 bd bd 1f d5 be f5 3d b1 bd 4a 70 d2 3d
       -0.051948994 -0.41625777 -0.086543955 0.10275324
000080 89 20 71 bf ef 29 40 3e bf 2a db 3d 7e 9c c3 bd
       -0.9419027 0.18765996 0.107015125 -0.09551333
000090 08 e4 c2 3d fd 6f ae 3e ed 07 f9 bc cf a7 ef 3c
       0.0951615 0.34069815 -0.030399287 0.029254822
0000a0 86 74 bf 3d a2 d4 0b 3e 3d 5e 5d bd 03 85 b9 3d
       0.09348397 0.13655332 -0.05404495 0.09058573
0000b0 ac 18 1c 3e 04 ef c8 bc 5e 1d 5b 3e d0 9e 0f 3f
       0.15243787 -0.024528034 0.21397921 0.56101704
0000c0 b4 30 9e 3d 88 2e f0 3e e3 37 14 bd ed bb a3 3d
       0.07724133 0.469105 -0.03618611 0.079948284
0000d0 21 a4 fe 3d 6d dc 86 bc 37 d7 b7 3d 3b ff e0 3d
       0.12433649 -0.01646253 0.08976596 0.10986181
0000e0 03 ec 0c 3e a4 d5 9e 3d c7 7c 84 3e 91 a8 5e 3e
       0.13761906 0.077555925 0.25876448 0.2174399
0000f0 03 79 92 bc d3 09 61 3e 2a d4 07 3e 2f 21 8b 3d
       -0.017879969 0.21976404 0.13264528 0.06793439
000100 0c 88 09 3e fc 84 31 3e 73 3d 56 3d 79 9e 05 bd
       0.13430804 0.17335886 0.052304696 -0.032621834
000110 6d d2 55 3e b2 8a a6 be 77 31 92 3d 47 51 1b bd
       0.20881052 -0.3252769 0.07138341 -0.03791931
000120 bf 8d f1 bb 6f 80 b4 3e a8 ca dd 3e f4 72 85 3e
       -0.007371634 0.35254237 0.43318677 0.26064265
000130 e0 8b 2e 3d 1d 88 ba bd 4e ee 0b bf 2c 1e 48 3e
       0.042613864 -0.09107993 -0.546605 0.1954276
000140 f4 46 6e 3d a6 50 92 3d 88 18 a8 bd 1b 65 b3 3e
       0.058173135 0.07144289 -0.08207804 0.35038075
000150 ab 4a 6f 3e e3 b1 a8 3e 1a 3d 1f 3e 60 2a 77 3d
       0.23368327 0.32948217 0.15550652 0.060343146
000160 f6 bc cd 3c 1e 47 4e 3d 97 2b 57 3e 90 c7 c2 3d
       0.025114518 0.05036079 0.21012722 0.0951072
000170 f7 7d 4e 3e 5b 2c 28 3e 1b ff 70 3e ce b0 b9 3d
       0.2016524 0.1642317 0.23534815 0.09066926
000180 8a c9 4f bd 21 18 16 3e 0a b2 f6 bc c7 2d a6 3e
       -0.050729312 0.14657642 -0.030114193 0.324568
000190 3c a6 bc 3e 0a eb 9d bd 2e 39 fc 3d 23 ac a2 3d
       0.36845577 -0.07710846 0.12315594 0.07942989
0001a0 47 9d 33 3e b7 26 20 3e 79 1d bf 3e 97 20 2f 3d
       0.17540465 0.15639769 0.37327173 0.04275569
0001b0 23 50 c0 3d e9 df cd bc b1 dc 1c be 38 f5 70 3d
       0.09390285 -0.025131183 -0.15318562 0.05882761
0001c0 c5 1f 14 3e de 45 ce bd 07 bc d0 3e bd c6 2b 3e
       0.14465244 -0.1007192 0.40768453 0.16775031
0001d0 d4 e1 1a bd 00 92 40 3e 4e b5 45 3c 67 b1 bb bd
       -0.037813023 0.18805695 0.012067152 -0.09164696
0001e0 5a 67 1e bf 05 08 99 bb cd 11 06 be a2 39 f5 3d
       -0.6187645 -0.0046701455 -0.13092728 0.11973883
0001f0 68 29 01 3e 79 2c ea 3e 99 3e 72 3e 45 4a 3b 3e
       0.12613451 0.45737055 0.23656692 0.1829005
000200 b0 c2 0d 3f 62 e7 59 be 59 69 f4 3e 8c e4 92 bf
       0.55375195 -0.21279672 0.47736624 -1.1475997
000210 57 1f da be 43 dc fb 3e d8 2f 6e 3e b8 8a f2 bf
       -0.42602035 0.49191484 0.23260438 -1.8948584
000220 a2 dc ff 3e 63 87 b9 be ff bd aa bf 5d d7 0d bf
       0.49973017 -0.36236104 -1.3339232 -0.55406743
000230 ec e6 0a bf 9a b4 63 bf d1 b7 1b bf f0 87 2a bf
       -0.5425861 -0.8894745 -0.60827357 -0.66613674
000240 02 29 25 bf 89 d7 06 3f ae b6 c1 be f4 30 97 bf
       -0.645157 0.5267263 -0.37834686 -1.1811814
000250 d8 af 13 bf 4c c9 06 bf 90 0b 62 bf df 0a 60 be
       -0.5769019 -0.52650905 -0.8829889 -0.21879147
000260 81 55 04 be 9d da dc bf f2 d3 59 3e c3 45 a8 bf
       -0.12923242 -1.7254215 0.21272257 -1.314629
000270 70 26 b3 be b2 7a f9 be 92 fc 06 3d e8 ef 91 bf
       -0.34990263 -0.48726422 0.032955714 -1.1401339
000280 e4 57 72 bf e5 15 0a be 20 87 93 3e 97 90 d7 3d
       -0.9466536 -0.13484915 0.2881403 0.10525625
000290 52 12 d9 3e 4f 45 b5 be 43 78 bd 3c da a8 45 3c
       0.4239679 -0.3540444 0.023128634 0.012064183
0002a0 76 ca 63 bf 88 bb 3e c0 75 e7 81 be cc db ce 3e
       -0.88980806 -2.980196 -0.253719 0.40402067
0002b0 65 7e ba 3e e0 fa 04 bf 97 08 4c bf 4e 47 f7 be
       0.36424556 -0.51945305 -0.7970061 -0.4829659
0002c0 20 b7 9d bf 05 8b 02 bc ab a1 71 3e 47 3c a0 bf
       -1.232151 -0.007967715 0.23596828 -1.2518395
0002d0 f8 0e e5 be 97 59 12 3f 04 0f 28 be 94 84 bb bf
       -0.44737983 0.57167953 -0.16411978 -1.4649835
0002e0 e4 b9 24 bf 72 11 82 bf a7 43 a3 bf 4a a4 b2 3e
       -0.64346147 -1.0161574 -1.2755021 0.34890968
0002f0 25 b5 7e bf 1a 6f c3 bf 1f 61 d6 3e f3 96 d2 3e
       -0.99495155 -1.526828 0.41870973 0.4113079
000300 d9 14 2e bf 7b 63 ee 3e 41 c9 7f be 0d ba 7d be
       -0.6800056 0.46560273 -0.24979116 -0.24778004
000310 f0 e8 d3 bf 44 68 b8 bf c1 ae 36 bf 6b 6d 84 3e
       -1.6555462 -1.4406819 -0.71360403 0.2586473
000320 2e f3 87 3e 25 89 a4 bf ca a0 bd be 8d 08 e4 bf
       0.2655272 -1.2854353 -0.37036735 -1.781511
000330 ab b0 8a be c1 a8 22 3e 21 59 a3 3d 2e 06 07 3f
       -0.27087912 0.15884687 0.07975984 0.52743804
000340 be 33 7f bf 09 86 23 bf f0 59 6b bf 05 7f 34 bd
       -0.9968833 -0.63876396 -0.9193411 -0.044066448
000350 9f 10 42 bf 92 f1 40 3d d4 56 c1 bf 2d 10 32 bf
       -0.7580661 0.04710538 -1.5104623 -0.6955593
000360 7f c9 80 bf c1 81 b8 be f1 fd 62 be 50 c5 05 bf
       -1.0061492 -0.36036494 -0.22167183 -0.522542
000370 42 95 59 be 25 f9 86 3e 15 36 b7 bf 77 c2 61 bf
       -0.21248344 0.26361957 -1.431338 -0.88187355
000380 e3 1b a5 be 40 15 a9 bf 29 dd 13 3f 7a 88 10 bf
       -0.32247838 -1.320961 0.5775934 -0.56458247
000390 68 74 48 bf 78 c9 a1 bf b4 44 af bf b3 b0 90 bf
       -0.7830262 -1.2639608 -1.3692842 -1.1303924
0003a0 1b 13 01 3f b8 44 9d bf 34 ef 35 bf 09 6e a9 bd
       0.5041978 -1.2286596 -0.7106812 -0.08272941
0003b0 a4 53 60 be 8b 19 04 bf d3 0b 49 bf 38 54 48 be
       -0.21906906 -0.51601475 -0.7853367 -0.19563377
0003c0 18 a9 20 bf ff 02 bf 3e f4 85 07 bf bb 43 8b bf
       -0.62758017 0.37306973 -0.5293877 -1.0880045
0003d0 f3 a5 87 be ab 62 a7 bd 78 6f b3 3e 4e b2 42 bf
       -0.26493797 -0.08173116 0.3504598 -0.7605332
0003e0 99 82 8f be 87 0b 9f bf b6 87 a0 bf 31 30 b9 be
       -0.28029326 -1.2425393 -1.2541416 -0.3616958
0003f0 4f 91 a8 3e 4a 0e c7 3d 3c 55 53 bf 4f 83 12 bf
       0.32923362 0.09719522 -0.8255193 -0.5723161
